going_modular/models/cnn_classifier_model.pth (torch, 32878 bytes, 10 tensors)

block_1.0.weight f4 [10, 1, 3, 3]
00000000: 38a7 dd3e 4f63 023f ad4d 523d 007d 043f
00000010: e8bf 2e3e 5a74 5e3e a1b7 a93b 2ba0 ce3e
00000020: 5e4c d13e 7228 09be 58e8 e93e cb59 123e
00000030: da65 d33e df92 7f3e ba21 8e3e a1bd f83d
00000040: 9dc0 e23e 1965 0e3e 1e34 4ebe 16c2 323d
00000050: 6924 30be c6d7 01be 16f2 57be feeb 3d3e
00000060: 482f a9be aa63 5cbe 39a8 e3bd 226f 8bbe
00000070: b7fa 90bd 5c0a cfbe 731e 873e a4cf b6be
00000080: 5411 5a3e 699e 793d a459 06be bd8b 523e
00000090: f888 083e e120 dc3e 04d6 f73d f389 65bc
000000a0: 3e9e 6f3e 65ca e9bc 28b0 623e 252e d73e
000000b0: c778 6b3e c57d 15be 0e92 443e 59d5 733d
000000c0: 15f0 2c3e 2f4d 50be 390e a9be 7907 04be
000000d0: c4f8 82be 72b5 8b3e 62c2 413e 4146 6c3e
000000e0: 0a8d 1e3e 85c6 a83d 4bb5 ad3e 77da 4fbe
000000f0: cfdf 893d 1b6a 42be a4a5 e23d 7821 f0bd
00000100: bed8 d13d a234 8bbd ae9a 8b3e 02e4 4bbe
00000110: 5d6c 4bbe bbdf 50be 6237 963e 1b1e d53d
00000120: b766 a73e 70cb 8cbe 6a66 a9be 4f7c 82be
00000130: ac42 64be 72a7 093e bcc1 093e 1011 953e
00000140: 9958 25be f6b3 68be 4710 353e 5afd 09be
00000150: d420 4f3e 181e a2bd 732d 433e b999 84be
00000160: 0b43 2cbe fa06 d03d
0.4329164 0.5093278 0.05134361 0.51753235 0.17065394 0.21724072 0.005179361 0.40356573
0.40878576 -0.13394335 0.45685077 0.14292066 0.41288644 0.2495837 0.27760106 0.12145544
0.44287577 0.13905753 -0.20137069 0.043642126 -0.1720139 -0.12679967 -0.21088442 0.18547055
-0.33043885 -0.21522394 -0.1111607 -0.27233225 -0.0707907 -0.4043759 0.26390418 -0.35705292
0.21295673 0.060942087 -0.13120133 0.20561118 0.133335 0.42993835 0.12101367 -0.01400994
0.23400208 -0.028538892 0.22137511 0.42027393 0.22995292 -0.14598759 0.1919634 0.059529636
0.16888459 -0.20341943 -0.33018664 -0.12893476 -0.25580418 0.2728687 0.18921807 0.23073675
0.1548349 0.082409896 0.33927378 -0.20298181 0.06732141 -0.18985789 0.1106675 -0.11725134
0.102464184 -0.06797148 0.2726645 -0.19911197 -0.19865556 -0.20397846 0.2933913 0.10406133
0.32695553 -0.2749896 -0.33085948 -0.25485465 -0.22291058 0.13442782 0.1345281 0.2911458
-0.16147079 -0.227249 0.1768199 -0.13475552 0.20227367 -0.07915896 0.19060306 -0.2589853
-0.1682245 0.10157581

block_1.0.bias f4 [10]
00000000: 6b39 d93d 7910 a73d 8b5d 8c3e 321b 433e
00000010: 013f fb3b 6daa 36be 47bc af3e a873 febd
00000020: 7b41 c4bd 862c a5be
0.10606655 0.08157439 0.27415118 0.19053343 0.0076674228 -0.1783845 0.34323332 -0.124244034
-0.09582802 -0.3226053

block_1.2.weight f4 [10, 10, 3, 3]
00000000: 1d40 7dbd 3594 cb3c 25fe 8dbc e978 9ebd
00000010: 6632 2b3b 3b81 95bd 78c7 bcbd 79cd 71bd
00000020: 7f7a bcbd fad6 8bbd e860 d63d 0c5d 883c
00000030: dca2 fe3c 0f7b cabd 0ec9 90bd 2a00 17bd
00000040: 0c7d 803c 83ff bebd 5639 15bd baa0 5cbd
00000050: 26b1 043c d09d e0bc f160 843b 134c 7dbd
00000060: 4e56 80bd 5240 53bd 0052 e7bc 10be 99bd
00000070: 18b7 c63d 7d20 4ebc cee5 cd3d c813 2e3d
00000080: 1082 a3bd 8a2c a63d 98b5 b1bc e6e8 09bd
00000090: 70c8 b4bd 55dd d6bd fae9 e93c 5f21 cabc
000000a0: 749c 253d 72bb b3bd 8c84 9d3d 1855 9fbd
000000b0: 20ab 97bc 4f5b b43c d305 5f3d 6444 ae3d
000000c0: d2ae c43d ad2c abbd 2151 d93c beb5 39bd
000000d0: 8b41 3dbc 5391 a1bd f36f d73d f176 8cbd
000000e0: 03eb 803d cd7c 493d 89d5 3c3d 3c78 40bd
000000f0: f5a6 d73d c737 083d 0a9c b73c 0c3f bebd
00000100: 9b7b 353d c98e 81bc 227c 45bd e36b b93d
00000110: 907e c03c d893 6ebd d59b 5abd 1190 a4bb
00000120: c7f5 713d ecd8 dcbc 73f1 75bd 6fbd 13bd
00000130: f3fc a0bd 5106 1a3d 6fa3 a73d 6d2f cbbd
00000140: fc98 c83c b20a 5f3d c993 9c3c 41c2 19bd
00000150: 235a 613d c6e4 623d 1b72 213d d8bc 97bc
00000160: c2a8 e4bc 40c2 383c e822 94bc 4173 01bd
00000170: 7547 8a3d 013c bc3d 6479 21bc acc1 c2bc
00000180: 2f46 9f3b a1aa 8bbb e427 d23c 29c7 f53c
00000190: d4a1 c3bd 640f 1ebd 3228 b83d 8c24 2b3d
000001a0: ad52 acbb fcc7 7cbd 622f 82bd 44aa c0bd
000001b0: 7dbc 0cbd d9f5 113d b40a 8a3d c661 473d
000001c0: 86f0 bebd 4b0a 82bd a2af 86bc b242 d13d
000001d0: 8b63 7e3c 094a debc 34c6 333d af05 24bd
000001e0: dd98 8bbd 6141 9e3d 8e24 44bd 6182 acbc
000001f0: f267 d6bd 34eb 913d c188 a43d fde1 1d3d
00000200: 4b5e 96bd 263f d3bd 8a8d aebd f3f0 a03d
00000210: 7bb0 563d 4866 b73d 337a 623d 598c da3c
00000220: 3a43 87ba 362d a4bd 46f5 b8bd dfeb c9bd
00000230: 32be 303d 8bf9 53bd b3c8 adbc f179 78bd
00000240: 14c3 9cbc 4f7f 97bd 57ab 8cbd 2a7a 113d
00000250: d893 febc 3e9e 853d ca35 02bd 5469 9bbd
00000260: 26cb 91bc f810 51bd 4014 04bd 5983 cdbd
00000270: 0c61 723d 520d 96bd e3f5 583d 8bf8 433d
00000280: 1277 9a3d b878 a5bd 26ed 9b3d 65f3 4bbd
00000290: bd41 203d e9cf ca3d 93fd 71bc 4070 4eba
000002a0: 7a80 c6bc acb6 b3bd 1453 4f3d 5d4e d6bd
000002b0: 6304 863d 8586 a13d 4628 cc3d 63af cbbc
000002c0: e05f b1bd cc24 c23c 9283 6e3d 8cdd d6bd
000002d0: 5eff c3bc 8268 81bd 1704 17bc 07e0 53bd
000002e0: 6e50 30bd 86f2 08bd bb99 ccbd 2cb6 b13d
000002f0: 4578 b53d 4975 87bc b8ac 44bc 2b33 30bd
00000300: b6c6 c2bd ba0d d2bd 3781 203d c562 6cbd
00000310: 426d 8abd 3433 04bc 5cc6 0fbd e6ac 0bbd
00000320: 242f 5e3b ee00 b7bc a199 14bd 34a3 4ebd
00000330: fc9f afbd 0a11 b53d feba 2cbd f1d4 e43c
00000340: 3fcc 15bd 8766 0c3c e79c c93d 706c 473d
00000350: 43d3 babd 862d 2c3d f868 cd3d b5e1 e43c
00000360: e5ba 903d e3d4 d43d b050 84bc 4e0f b43c
00000370: c8f8 95bd 34eb b1bc 9c0c a03d 4cb3 5d3d
00000380: 3767 88bd 061c adbd f685 93bd 9b0b d5bd
00000390: 7b94 a6bd 788a d5bc e8b1 913d 6489 903c
000003a0: 9b32 a4bd bf2e adbd e2cc 563d b692 a0bd
000003b0: 919c 54bc 4a80 4f3d 5c61 47bd 0cf4 39bc
000003c0: 887d 13bc c5e5 cabc 1f7c 5abd 2c71 c0bd
000003d0: ae81 aebd 5f30 67bd f79c d03d bb8a 50bd
000003e0: bbf3 90bd 8354 d13c 6eac ee3c d3e6 6c3d
000003f0: 0518 a43d 2f6f 703d 1d0b d6bd acb6 193c
-0.06182872 0.024850944 -0.0173331 -0.077379055 0.002612257 -0.073000394 -0.09217733 -0.059033845
-0.09203052 -0.06828113 0.10467702 0.01664593 0.031083517 -0.09886753 -0.07069598 -0.03686539
0.015684627 -0.09326079 -0.036431633 -0.05386422 0.008098876 -0.027419 0.0040398766 -0.06184013
-0.06266461 -0.051575013 -0.028237343 -0.07506955 0.09702891 -0.012580988 0.100535974 0.042499334
-0.07983792 0.08113964 -0.021693036 -0.033669375 -0.08827293 -0.104914345 0.028553952 -0.024674116
0.04043241 -0.08775987 0.07691297 -0.07779902 -0.018514216 0.022016196 0.054448914 0.08509138
0.09603657 -0.083581306 0.026527943 -0.04533934 -0.011551271 -0.078890465 0.105193995 -0.06858624
0.06294825 0.049191285 0.04610208 -0.046989664 0.105298914 0.03325632 0.022413272 -0.09289369
0.044307332 -0.015815156 -0.048214085 0.09053781 0.02349785 -0.058246464 -0.05337127 -0.005022057
0.059072282 -0.026958905 -0.060044717 -0.03606933 -0.07860746 0.03760368 0.08185469 -0.09921155
0.024487011 0.05445356 0.019113438 -0.03753877 0.0550176 0.055393957 0.03941546 -0.018522665
-0.027912501 0.011276782 -0.01808305 -0.031604055 0.067519106 0.09191132 -0.009855602 -0.02377399
0.0048606615 -0.004262284 0.025653787 0.030002194 -0.09552351 -0.038588896 0.08992042 0.0417829
-0.005258879 -0.061714157 -0.06356694 -0.094074756 -0.034359444 0.03563485 0.06740323 0.04867723
-0.0932322 -0.063496195 -0.01644117 0.10217799 0.015526663 -0.027134912 0.043890193 -0.040044483
-0.06816266 0.07727314 -0.047886424 -0.021058263 -0.10469045 0.071249396 0.08033896 0.038545597
-0.07342204 -0.10314779 -0.0852309 0.078584574 0.0524144 0.089550555 0.05529232 0.026678251
-0.0010319718 -0.08016436 -0.09031157 -0.09859442 0.043150134 -0.051751655 -0.021213865 -0.060663167
-0.01913599 -0.07397329 -0.06868618 0.035516895 -0.031076357 0.06524323 -0.03178958 -0.07588449
-0.017797064 -0.051041573 -0.032245874 -0.10034818 0.059174582 -0.073267594 0.05296887 0.04784445
0.07542242 -0.08079666 0.07613592 -0.049792666 0.039125193 0.09902937 -0.014769929 -0.0007875003
-0.024231184 -0.08775076 0.05061634 -0.10464165 0.065438055 0.07886986 0.09968619 -0.024863904
-0.08660865 0.023699187 0.058230944 -0.104914755 -0.02392548 -0.063187614 -0.009217284 -0.05172732
-0.043045454 -0.033434413 -0.09990259 0.08677325 0.0886083 -0.016535418 -0.01200407 -0.043017548
-0.09510557 -0.102565244 0.03918573 -0.05771138 -0.067591205 -0.008068848 -0.03510128 -0.034100436
0.003390261 -0.02233931 -0.036279324 -0.05044861 -0.085754365 0.088411406 -0.042170517 0.02793357
-0.036571737 0.008569366 0.0984438 0.0486874 -0.09122326 0.042035602 0.10029787 0.027939657
0.07066897 0.103921674 -0.016151756 0.021979954 -0.07322842 -0.021718599 0.07814905 0.05412607
-0.06660312 -0.08452611 -0.072032854 -0.10402604 -0.08133789 -0.026067004 0.07114011 0.017643638
-0.08017465 -0.08456182 0.052441485 -0.07840483 -0.012976781 0.050659455 -0.048676834 -0.011349689
-0.009002097 -0.024767766 -0.053341027 -0.09396586 -0.08520828 -0.056442615 0.10186189 -0.050913554
-0.07077738 0.025552994 0.029134955 0.05783732 0.08012394 0.058699783 -0.104513384 0.009381931

block_1.2.bias f4 [10]
00000000: b372 b73d 2668 41bd b0ef 5dbd c560 dabc
00000010: 41e2 a1bc 2c69 0d3d 4345 44bd 41d6 f5bb
00000020: 4a4c 66bd 90f2 cf3c
0.08957424 -0.047218464 -0.054183662 -0.026657471 -0.019761207 0.034524128 -0.047917616 -0.0075023477
-0.0562251 0.025384218

block_2.0.weight f4 [10, 10, 3, 3]
00000000: 4d91 df3c 03dc aebd efcf 82bd ef3c bc3a
00000010: 7f3f 6f3c 6634 6e3d 00d8 97bd 169f 093d
00000020: 1c40 753d b2bc 6f3d d512 c9bd 9dc2 24bd
00000030: c08f b9bd c69c 88bd d877 703d 67f0 80bc
00000040: 285f 373d 8371 7dbd 2438 833c 5c93 82bd
00000050: ded4 573d 55d7 3cbd a088 d8bc 7a4d bbbd
00000060: 0092 b639 d7f8 cc3d aa90 513d 42cf 66bd
00000070: 9094 893a e288 5bbc 6c1b aebd 22ba a73d
00000080: 899f 2bba e589 b53c ba06 32bd fabb 58bd
00000090: f6af 8a3c e9d5 1c3d 5346 af3c 1330 52bd
000000a0: 1e87 cf3d 0820 91bc 2c06 85bd c529 4fbd
000000b0: e2ec cd3d eb10 32b9 e784 6ebc cb43 37bd
000000c0: 19ab e3bc 9d82 b6bd 353c adbd e82c 7c3d
000000d0: e5d9 b73d 40b1 cb3d f03e 9cbd a3b8 683d
000000e0: 0700 86bd 0c62 803d c060 9b3d 7266 a63d
000000f0: 8d0f 9b3d e4d4 863d 16c3 eb3a f16a 443d
00000100: bb92 1dbd 5c5e 303d f4f8 0cbd cb4e 40bb
00000110: f91b c2bd 19b9 e4bc c528 68bd 6508 25bd
00000120: 9a0b 8abd 3a70 c2bd 5265 b93b 26d6 8b3d
00000130: e70c c43d 9a80 753d 02f2 5fbd bce4 d5bd
00000140: 7c03 1a3d b98b 703d 6393 babd 0aa1 133d
00000150: c9c0 b53d 6c66 b43b 7cf1 85bd 4869 b03d
00000160: f6d4 333d 8d44 893d 57e9 9abd ac11 563d
00000170: 5686 9ebd f1ca cc3d 4764 52bd af8d 6b3d
00000180: ddb6 9a3c 06da ce3c b3bd 9ebc 1616 313d
00000190: a143 34bd 847f cbbd cecc 25bd 642a a93d
000001a0: 0fb4 e3bc fc14 073d 5f36 1fbd decf a13d
000001b0: da39 813d 3f6f 183d 2daf 5cbd 8c65 b0bd
000001c0: b8fa 813b 954a 7dbd 717e b13d 2674 cfbd
000001d0: 03f0 403d ec92 963d a456 eb3d fb1a ae3d
000001e0: 28a8 f6bd 9b9a 0d3e 815d 503b ff61 c5bd
000001f0: cecf f33d c972 58bd 2c29 bbbc d19d 033e
00000200: cffe 62bd ad36 b2bd 474a 0b3d ed2e 93bc
00000210: b2d1 7c3c ae04 bebd ad3c c3bc b334 8abd
00000220: 9fe3 12bd 82a1 a6bd f5ac 423d 4d81 ff3c
00000230: 4da7 aebd 905a 9d3d fdb1 203d 6f31 b13c
00000240: beeb d8bd 7e20 3c3c 01ea e73d 16e2 1d3d
00000250: afe4 adbd d2c0 cb3d 1e88 87bc f959 793d
00000260: 82f4 aa3d 20c2 013d 7717 ef3b 7aa6 283e
00000270: 92cc e5bd b888 583d c001 44bd d5f8 d6bc
00000280: 37a3 e73c 58ea 61bc 75a8 9bbd eaac 4b3d
00000290: eff4 213e a352 103d 2077 bd3d e7f1 953d
000002a0: a094 a43d 4a16 9e3c a93e 813c 8a8d 943c
000002b0: a471 42bd 7dd5 7fbd 2b4c 903c e56f 82bc
000002c0: 3cb2 0ebb 3e45 7fbc 5406 d33c 1af3 493d
000002d0: cdc3 04bd 9f38 9b3d b441 963d 8312 a4bd
000002e0: 2e18 babd cbcf c4bd f8ff 63bd 3b5a 3cbd
000002f0: 6483 49bc a321 d2bc 6a72 5abd 58e3 09bd
00000300: 687c 1cbd 7a85 d33d 30ca 20bd 21b3 9abd
00000310: 661b 323d 780d c4bb db46 a53d cfe2 863d
00000320: f256 c63d 8c19 9ebd c3c8 8a3d 442a b53d
00000330: d936 55bd 4c6e c63d 11d5 a13d 26a6 17be
00000340: 19be f03c f0c0 e53b f0ac 3bbe 9706 933d
00000350: 06e3 263e 4f73 1ebe 46b4 2d3d 7efe 84bd
00000360: 2b3b 1dbc 3729 f53d 014f 093c 9a77 f1bd
00000370: 82ca 193e 4fa1 9b3d 2376 adbc a47b a83d
00000380: 7c4e 473d 5935 b1bd 1f76 cbbc c15d 1d3d
00000390: 0be0 17bb 9959 033e ea07 11bb 910a 59bc
000003a0: 1405 503d ce46 14bc 664b 703d f067 44bd
000003b0: 0324 80bd 207e 52bc 24d3 c6bd d6d2 993d
000003c0: a890 35bc 3002 0fbe 03c6 283d 180b 3bbe
000003d0: 8dc4 57bd 6d17 413e 80aa cdbd c00a 223e
000003e0: 64f2 863e db6a 2bbe 4910 293d 2802 2b3e
000003f0: 1f2a 37be 196f 1fbe 74f4 413e c257 d63c
0.027290964 -0.08538058 -0.063873164 0.0014361421 0.014602541 0.05815544 -0.074142456 0.03359898
0.059875593 0.058529563 -0.09818045 -0.04022466 -0.09060621 -0.06670527 0.058708042 -0.015739633
0.044768482 -0.06187583 0.01601798 -0.06375763 0.05269324 -0.046103794 -0.026432335 -0.09145637
0.00034822524 0.100084 0.051163353 -0.05635 0.0010496546 -0.013399335 -0.08501324 0.08189799
-0.0006546905 0.02216048 -0.043463446 -0.052913643 0.016929608 0.038289938 0.021395838 -0.05131538
0.101331934 -0.017715469 -0.06495318 -0.050576944 0.100549474 -0.00016981705 -0.014558054 -0.044742387
-0.027791547 -0.08911631 -0.08458749 0.061566263 0.08977107 0.09945917 -0.07629192 0.05681671
-0.06542974 0.06268701 0.07586813 0.08125009 0.075713255 0.065835744 0.0017987217 0.04795355
-0.03847001 0.043058738 -0.034417108 -0.002934384 -0.094779916 -0.027920293 -0.056679506 -0.04029121
-0.06740494 -0.09494062 0.0056578303 0.06827955 0.095727734 0.059937097 -0.054674156 -0.10444018
0.03760098 0.058727 -0.09110143 0.03604225 0.088746615 0.0055053737 -0.065402 0.08613831
0.043904267 0.06702528 -0.07564037 0.052262947 -0.07740466 0.099996455 -0.051365163 0.057508167
0.018886024 0.025250446 -0.019377565 0.043233953 -0.04400981 -0.09936431 -0.04047852 0.082600385
-0.02779582 0.032978997 -0.03887021 0.07900976 0.063098624 0.037215468 -0.053878 -0.086131185
0.0039666556 -0.061838705 0.08666695 -0.101295754 0.047103893 0.07352242 0.11491135 0.0850124
-0.12043792 0.13828509 0.0031794014 -0.09637832 0.1190487 -0.052843843 -0.02284678 0.12853171
-0.055418786 -0.08701835 0.034006383 -0.017966712 0.015430855 -0.09278236 -0.023832643 -0.06748333
-0.035861608 -0.08136274 0.047528226 0.031189585 -0.08528004 0.07683289 0.039232243 0.021630017
-0.10591839 0.011482356 0.113239296 0.03854569 -0.084908836 0.09948887 -0.016544398 0.06087682
0.083474174 0.031679273 0.0072964984 0.16469756 -0.11220659 0.05286476 -0.04785323 -0.0262417
0.02827607 -0.013788782 -0.0760049 0.04972545 0.15816091 0.03523506 0.09251237 0.0732153
0.080361605 0.019297738 0.015776949 0.018133897 -0.047471657 -0.062459458 0.017614445 -0.015922496
-0.0021773716 -0.0155804735 0.025759853 0.049304105 -0.032413293 0.07579159 0.073367506 -0.08011343
-0.09086643 -0.09609946 -0.055664033 -0.045984488 -0.012299392 -0.025650805 -0.05333177 -0.033664078
-0.03820458 0.10328193 -0.03925532 -0.075536974 0.04348316 -0.005983051 0.08070155 0.06586229
0.09684552 -0.077197164 0.067765735 0.08845952 -0.05205426 0.09689006 0.07901967 -0.14809474
0.02938752 0.0070115253 -0.18327689 0.07178991 0.1629754 -0.15473674 0.04240825 -0.06493853
-0.009596626 0.11970752 0.008380652 -0.1179039 0.15018657 0.075991265 -0.021174496 0.082267076
0.048658833 -0.086527534 -0.024836598 0.03841949 -0.0023174312 0.12827148 -0.0022129961 -0.013247148
0.050786093 -0.009050084 0.058665656 -0.047950685 -0.06256869 -0.012847453 -0.09708241 0.07510917
-0.011081852 -0.13965678 0.041204464 -0.1826595 -0.05267768 0.18856592 -0.10042286 0.15824413
0.26356804 -0.16739981 0.041275296 0.16700041 -0.17887162 -0.15569724 0.18940908 0.026164893

block_2.0.bias f4 [10]
00000000: 9673 b7bd 509c abbd 2c93 3b3e 51c1 c7bd
00000010: 4a3c b4bd d23e e53d 4deb fe3d 9bcc 46bd
00000020: ef2d 983e 1a31 5f3d
-0.08957593 -0.083794236 0.1831786 -0.09753669 -0.08800562 0.11193623 0.12447224 -0.04853497
0.29722545 0.054490186

block_2.2.weight f4 [10, 10, 2, 2]
00000000: 9586 c4bd d9fc f1bd a1a0 f0bc 156e 25bd
00000010: 0a01 3c3e bd5f 833d 5ac6 af3d 33e1 71bd
00000020: af9c 513e 630d e33d b370 7dbe 4999 18be
00000030: 0961 09be e890 893d f374 0dbe c81a 99bd
00000040: 0501 1f3e a21d 1abe 4775 ec3d fc77 6c3c
00000050: 1443 423e f068 3ebd 0d0a a23d 6683 b73b
00000060: 8b62 13bb 384c e73d 396b 17be 4ba1 dfbd
00000070: 0da8 2c3e 8e63 29be b569 2cbe 99a8 cabd
00000080: cd91 c63d 290b 093e 4040 87bd b653 0b3e
00000090: a638 12be 4cc0 5bbc e9ac 6d3d db24 28bd
000000a0: 8da5 ab3c 5554 bd3c 29ad 3dbd 37f5 f5bc
000000b0: f399 e9bd bf2d 92bd 528b 1ebe 225f 613e
000000c0: bc68 89bc 29bf 1d3e 0cb0 4e3e 8053 3c3d
000000d0: 8e34 aebd 2066 dbbd 3697 6ebd 122a 673d
000000e0: b835 08be ec78 9ebc a60f 763d 1818 043e
000000f0: a178 563d b30d 343d a24f 0f3e 49d1 903d
00000100: 8309 913d 49fa aebd 6d55 09be 141f 99bd
00000110: 7a26 26be 4a9b cd3d de09 97bd 3263 193e
00000120: 22dc 723e f116 1fbe 2422 cdbd d371 74be
00000130: 0427 75be 954c 333e 3943 7bbe a42e 533d
00000140: 5936 09bd 178c c4bd 57e3 923d eec9 86bd
00000150: 44ac fdbc 299a 0fbe 7a41 1bbc 7613 603d
00000160: c4cf adbc 8283 e2bd 16f1 013e f4e3 56bd
00000170: 1f86 b3bd 8699 eebd 2830 09bd 38d6 18be
00000180: 2a25 053e 4b6e acbd 2929 87bd 09c7 aa3b
00000190: aef3 2dbc 7a6b 9fbd 0be8 f13d 40f0 f1bd
000001a0: f156 583d 8b0b 3bbc 66ad 2ebe fdb8 d5bd
000001b0: 909a 4a3d 75a3 87bc b4f0 833e 92c9 303e
000001c0: 98a7 20be 7795 92bd ba57 08be 1e13 12be
000001d0: 50bb c1bc a802 e6bd 840d d33d 12d9 443e
000001e0: 8080 4c3c 88d2 e7bd a4ed f4bd 5fa5 7bbd
000001f0: 663a 30bd b03e 803c c4b3 7cbc 6974 5e3e
00000200: e6c9 0f3e 9d6f 103e c43b a13c a5d2 a53d
00000210: 54ee 6c3d f6bb 11be 2048 bfbd a6e7 ad3b
00000220: ef8b 763d aea4 9d3d 4b6b c1bd 65e8 20be
00000230: f7b7 b0bd 40ac e0bd dcf4 833a 2a96 f1bd
00000240: 4eb2 a23d 8ea4 3fbd 4fbc 813d 8824 29be
00000250: 196f 143d a966 073e 7c14 03be e3c2 973d
00000260: cfea 9fbe 342e ba3c 2c66 febd 2025 8cbd
00000270: d24e a03d c234 c43d b9f3 9d3c ad5c a63c
00000280: 58b8 fcbd 7d2f d63d 4fd0 c1bc 5a91 16bd
00000290: 555c 223d 27df 743d 402d 2abd e624 2fbe
000002a0: de4d 503e 4ba2 bfbe dfc7 333e a46a aabe
000002b0: 6843 323d e123 f73d 391c a4bd 7100 9dbd
000002c0: 9784 963d 27c8 0c3c ea39 b3bc 3b38 0bbe
000002d0: bc5d 453e e91c 73bd 1d37 403d 6fc2 eebd
000002e0: 240e fdbc 4c64 033e 26fc 85ba 0f24 4b3e
000002f0: ab12 433d 8829 4cbe ab0a 5a3e b017 06be
00000300: 15d5 3fbd 6362 9d3c 1cda 0c3e c328 263b
00000310: 05cd 1c3e 0acd 8b3c 3921 e93d 0cbe 05b9
00000320: 8039 513d 2874 863c 5cd4 093e f07a 153e
00000330: 470b 13bd 8f29 9bbd c740 a83d 9160 febd
00000340: 7e66 293e 7e42 043e 8c7b 023d 6179 673c
00000350: 7099 f1bd cffa e63d 4597 8dbd 9163 2a3d
00000360: 8fbe be3d b5f4 22be 343d 553c c90b 86bd
00000370: e6a8 1c3e b16a cfbd 0d95 103e 3443 2f3e
00000380: d89b 673d 08f3 023e 54be 583b 97d3 1bbe
00000390: 9cfe e33d 02eb 233d 3784 68be b727 b7be
000003a0: 649d 2abc fb85 02be 3e21 8d3e 384d 773e
000003b0: 941c 333e db40 8b3e 682e 98be 12f1 61be
000003c0: ca73 7dbd 05d0 81bd 7a11 fc3d fd0a 5c3d
000003d0: 3f26 003e 5551 cebb acf7 12be 4a4f 40bd
000003e0: 87bf e63d 7cf8 c73d 03d2 353d 42b0 49bd
000003f0: ee1e 17be e2fe adbd fcd4 a83d 3b9d 82bd
-0.09595982 -0.11815805 -0.029373469 -0.040388186 0.18359771 0.06414745 0.085827544 -0.059052657
0.20469926 0.11086538 -0.24750023 -0.14902224 -0.13415922 0.06717092 -0.13814144 -0.07475811
0.15527733 -0.15050367 0.115458064 0.014432903 0.18970901 -0.046486795 0.07912073 0.0056003807
-0.0022489156 0.112938344 -0.14786996 -0.10919436 0.16860981 -0.16541883 -0.16837199 -0.09895439
0.09695778 0.13383164 -0.066040516 0.13606152 -0.14279422 -0.013412546 0.058026228 -0.041050773
0.020952964 0.023111502 -0.046307717 -0.030024154 -0.114063166 -0.071376316 -0.15482834 0.22008947
-0.016773574 0.15404953 0.20184344 0.04597807 -0.08506118 -0.10712838 -0.058249675 0.056436606
-0.13301742 -0.01934477 0.060073517 0.12899816 0.052361134 0.043958377 0.13995221 0.07071168
0.07081892 -0.08543832 -0.13411494 -0.07476631 -0.16225615 0.10039385 -0.07374929 0.14979246
0.23716787 -0.15536095 -0.100162774 -0.23871545 -0.23940665 0.17509682 -0.24537362 0.05155815
-0.033499096 -0.095970325 0.07172268 -0.06581484 -0.030965932 -0.14023651 -0.00947606 0.05470606
-0.021217234 -0.110602394 0.12689623 -0.052463487 -0.08765816 -0.11650376 -0.03349319 -0.14925468
0.13002458 -0.08419474 -0.065996476 0.005211715 -0.01061718 -0.077841714 0.11811837 -0.11813402
0.05281729 -0.011416326 -0.17058334 -0.10435674 0.04946381 -0.016557435 0.2576958 0.17264393
-0.15688932 -0.071574144 -0.13314715 -0.14265105 -0.023648888 -0.112309754 0.10305312 0.19223431
0.012481809 -0.113194525 -0.11959389 -0.061437007 -0.043024443 0.015654892 -0.015423719 0.21724094
0.14041862 0.14105077 0.019681819 0.08096818 0.057844475 -0.14231858 -0.093399286 0.0053071557
0.060192045 0.07697426 -0.09444293 -0.15713651 -0.086288385 -0.10970354 0.0010067481 -0.1179622
0.07944165 -0.04678779 0.06334745 -0.16517842 0.036238763 0.13222755 -0.12800783 0.074102186
-0.31233832 0.02272711 -0.124218315 -0.068430185 0.07827534 0.09580375 0.019281255 0.020307863
-0.12339848 0.104582764 -0.0236589 -0.03675971 0.039638836 0.059783127 -0.04154706 -0.1710392
0.20342204 -0.37428507 0.17556714 -0.33284485 0.043521315 0.1206739 -0.080131955 -0.076661
0.07349508 0.008592642 -0.021878202 -0.13595669 0.19274038 -0.059353743 0.04692756 -0.11658179
-0.030890532 0.12831229 -0.0010222241 0.19837974 0.047625225 -0.19937718 0.21293132 -0.13094974
-0.04683407 0.019211954 0.13755077 0.0025353886 0.15312584 0.017065544 0.1138329 -0.00012754666
0.051080227 0.01641281 0.13459915 0.14597678 -0.035899427 -0.07576286 0.0821548 -0.12420762
0.16543004 0.1291599 0.031856105 0.01412806 -0.11796844 0.11278307 -0.06913618 0.04159886
0.0931369 -0.15913661 0.01301508 -0.065452166 0.15298805 -0.10127772 0.14119358 0.1711548
0.05654511 0.12788022 0.0033072429 -0.15217434 0.11132547 0.040019043 -0.22706686 -0.35772488
-0.010413501 -0.12746422 0.27564424 0.2415055 0.1749137 0.27197918 -0.29722905 -0.22064617
-0.061878003 -0.06338505 0.12308021 0.053721417 0.1251459 -0.0062963166 -0.14352292 -0.046950616
0.11267 0.097641915 0.044389736 -0.04924036 -0.14757892 -0.08495881 0.082437485 -0.063776456

block_2.2.bias f4 [10]
00000000: 51d7 9f3c da5c 40bd c5cc 363e 683f 4cbc
00000010: 4ea9 b13e 5f3d d03d 285d 5abd e5b1 613d
00000020: 72bf d5bd c3b3 febc
0.01951185 -0.04696355 0.17851551 -0.012466289 0.34699482 0.101679556 -0.053311497 0.055101294
-0.10436906 -0.031091576

classifier.1.weight f4 [10, 490]
00000000: f0ee 2dbc 31dd 39bc aa45 2fbd c270 933c
00000010: f431 193d c42e cabc 883b 0c3c 44ee 8abc
00000020: cc71 99bc 07ba f93c a39e c43d 4dea 253d
00000030: 56ad bbbc fa4d 86bc 0efd 2a3d aa22 4a3d
00000040: ce9b ecba 7767 f13c 9cc7 7dbb 00be f23c
00000050: cdaf a83c ed92 7f3c ba05 3d3d 6173 d93c
00000060: 97b7 d4bb 84d2 cd3c 7af3 9b3d 3959 da3c
00000070: 94b4 e8bb 8024 cdbc 0eee 80bc 05f9 12bd
00000080: 3c7d e23b 6866 91bc f34f c83c 26ae e63c
00000090: 21c0 48bc f315 fa3c 6914 02bd 7106 1a3d
000000a0: 45fb d13c 4f27 67bc 5779 36bd 08f0 1cbd
000000b0: 7539 0fbd a32d 23bd 7ae6 a3bd 9464 d8bc
000000c0: da92 20bd f98a 6cbc 494a 5fbd 6a4f d8bc
000000d0: c2b1 5bbd a546 15bc 90d1 073c c3a3 f93c
000000e0: a569 b13d c11f 363c 7661 d13c f52d 40bd
000000f0: 9a02 3ebd fe5a 543d bb2f 03bd eed8 063d
00000100: d15c 393d 5421 213b e5ce f9bc 0472 043d
00000110: 16a9 b23c 584f 20bd 2e67 7cbb 902c c5bc
00000120: c48e 9e3d 1a4b 02bd 84fd 0839 3cbb 80bc
00000130: 841e ef3c f0f2 33bb 9f66 86bc f0d1 923d
00000140: 737b b0bd afa2 1ebd bdc3 e33c bf5c 84bc
00000150: cf54 fabc c529 4c3d 3f10 823c 4586 2fbd
00000160: c024 b4bd d012 e3bc 7e8f eabc 65bf 92bd
00000170: 4cfb c13d f5f7 883d 054a cfbc 3779 c7bc
00000180: 12a1 73bd c889 84bb 307c 8e3b 70ed cf3d
00000190: 1ffb 0a3d 40f9 4dbd 1f83 1fbc 841c ed3d
000001a0: b007 ae3d 4892 493d 6f39 fc3d b9b8 b43d
000001b0: 7002 273c 68ea 97bc 1332 fd3c ab4a cf3d
000001c0: e0d9 f13b 3e5c ca3d ab93 fa3d 4fd0 2fbd
000001d0: d622 473d e91a e33c d975 213d 2ed4 17bd
000001e0: 4f69 fcbc fedb ce3c 28e5 4eba 3b2d 03bc
000001f0: ece9 24be 0e69 c2bd 3716 64bc 4a2f 15bc
00000200: 6428 173d a008 51bd 254e 133d 0959 9abd
00000210: c17a 53bd b14d 8539 5e7c 90bd 8cfa 8bbb
00000220: b3bb fdbb 2371 53bd cbca 743d effb 19be
00000230: 7f0f 33bd 3b7a 99bd d30c d13d a42e 3a3d
00000240: 1337 f73c ab97 0d3e 1141 8abd 54d5 383d
00000250: 0d21 5f3d c781 68bb 0635 153b 7f6b 883c
00000260: cc87 083e 3003 8b3c 5a3c a33d 4c8e 243d
00000270: be14 043c c168 3a3d cfcf aa3d 7cc3 833c
00000280: c58b 0b3d 12cd 0e3e 5af1 e63d e886 453c
00000290: b3b3 84ba 6376 833d 935d 563c 7343 e23c
000002a0: faa5 f53c e903 a0bd 2fb6 01bc 57fe 24bd
000002b0: c14e c9bb 56dd 0bbe 68e5 e7bd 79d6 5abd
000002c0: 62cb a7bd 2027 9fbc 4811 85bb b993 c1bc
000002d0: cca4 28be deed 26bd 2e40 8dbd 0f68 523c
000002e0: d115 d53c 4e2b f3bc fb29 7ebb 558a 36bd
000002f0: 3a2f cbbc fac9 a1bd 0f75 b83d 46e5 7ebb
00000300: 9023 a5bb 3e15 8f3d 9849 7a3b a9b1 cebc
00000310: 62ba bebb 3bee 00bd c84c 643d 6f3e ae3c
00000320: 8ad6 0ebc f085 adbc c5bf 153d afaa 37bd
00000330: ec6b c43d 00b3 4f36 4cff d9bc 9d7e c33c
00000340: 47b6 323d 1381 4b3c f019 6a3c c2ad dd3d
00000350: 4ca2 8eba 6fa0 12bd 4be6 0a3d 079e af3c
00000360: fd53 843c 6490 5cbb 375f b13c 8f12 4b3d
00000370: 2421 84bb 251c 1f3d 0964 373d 74a5 a93b
00000380: 892f b93c 8142 343c 4823 bdba ac5d 80bc
00000390: f20f 8e3d b14f 89bc 02c4 1dbd b029 533d
000003a0: d19b e23c 3e33 d5ba 22ef b9bd 4232 2bbc
000003b0: d21f d939 4728 a03b a7f3 213d 9c30 65bd
000003c0: 6908 ab3b dead 96bd e1e1 9fbd 0e43 733d
000003d0: a68a f5bc 7b19 4fbd bf3d e73c c782 ba3d
000003e0: e232 d73c a0c9 b93d ef6c a53d 16d1 f0bc
000003f0: d969 923d ab88 0fbd 83db 3abb 6280 063e
-0.010616049 -0.01134424 -0.042791046 0.017998103 0.037401155 -0.024680503 0.008559115 -0.016959317
-0.01873102 0.030484213 0.0960057 0.04050665 -0.022909801 -0.016394604 0.041745238 0.049349464
-0.0018051805 0.029468281 -0.0038723713 0.029631615 0.02059164 0.015598995 0.04614804 0.026544275
-0.006491612 0.025124796 0.07614799 0.026653873 -0.0071016047 -0.025041819 -0.015738513 -0.035882015
0.0069119018 -0.017749026 0.024452185 0.028159212 -0.012252838 0.030528044 -0.031757746 0.0376038
0.02563251 -0.014108493 -0.044549312 -0.03831485 -0.034966905 -0.039838444 -0.08002944 -0.026415147
-0.03920255 -0.014437431 -0.054514203 -0.026405055 -0.05363632 -0.009111081 0.00828971 0.030473595
0.08662728 0.011115969 0.025559168 -0.046918828 -0.0463892 0.05184459 -0.03202794 0.032921724
0.045254532 0.0024586516 -0.030494163 0.032335296 0.021809142 -0.039138168 -0.0038513648 -0.0240691
0.07742074 -0.031809904 0.00013064413 -0.01571428 0.029189356 -0.0027458034 -0.016406355 0.07168949
-0.08617296 -0.038729366 0.027803296 -0.016157506 -0.030558018 0.049844522 0.015876887 -0.04285266
-0.08796072 -0.027718931 -0.028632876 -0.07165412 0.09471759 0.06687919 -0.02530385 -0.024349792
-0.05947978 -0.004044745 0.0043483004 0.101527095 0.033930894 -0.05028653 -0.009735852 0.115777045
0.0849756 0.04921177 0.12315642 0.088242956 0.010193452 -0.01854439 0.030907666 0.10121664
0.007380709 0.09880875 0.12235197 -0.042923268 0.048617207 0.027722793 0.03941903 -0.037067585
-0.030811934 0.025251385 -0.00078924233 -0.008006389 -0.16104859 -0.09492694 -0.013921312 -0.009105513
0.036903754 -0.051033616 0.035963196 -0.07536513 -0.05163074 0.0002542562 -0.07054971 -0.004271811
-0.0077433228 -0.051621567 0.05976371 -0.15037511 -0.04371595 -0.07494017 0.10207524 0.045454636
0.030177629 0.13827388 -0.06750692 0.04512532 0.05447488 -0.0035477744 0.00227672 0.01665282
0.13333052 0.016969293 0.079704955 0.040174767 0.008061586 0.045510057 0.083404176 0.016084425
0.03406884 0.13945416 0.11276503 0.01205609 -0.0010124355 0.06419065 0.013083833 0.027620053
0.02998637 -0.07813246 -0.007916971 -0.04028162 -0.0061434214 -0.13658652 -0.11323053 -0.053427193
-0.08193089 -0.019427836 -0.004060898 -0.02363001 -0.16469115 -0.04075419 -0.06897007 0.012842192
0.02601138 -0.029683735 -0.0038782347 -0.044565517 -0.024802793 -0.07899852 0.09006702 -0.0038893982
-0.00503964 0.069864735 0.0038190838 -0.0252312 -0.0058205584 -0.031477194 0.055737287 0.021270005
-0.008718142 -0.02118203 0.03655984 -0.04484051 0.09590897 3.0949595e-06 -0.026610993 0.023864085
0.043630864 0.01242091 0.014288411 0.10824157 -0.0010882108 -0.035797533 0.03391103 0.021437658
0.01615333 -0.00336554 0.021651847 0.049578246 -0.004032271 0.0388452 0.044773135 0.0051771943
0.022605674 0.011002184 -0.001443007 -0.015669666 0.06936635 -0.016761633 -0.038517006 0.05155343
0.02766219 -0.0016265882 -0.09078814 -0.010448994 0.00041413173 0.004887614 0.039539006 -0.05595456
0.0052195084 -0.07357381 -0.07806755 0.05939012 -0.02997334 -0.05056141 0.028227685 0.09106975
0.02626938 0.0907166 0.08077418 -0.029396575 0.07149095 -0.035042446 -0.0028512187 0.13134912

classifier.1.bias f4 [10]
00000000: 115b b7bb 3e76 47bd 78dc 5d3d fa00 163d
00000010: 7868 14be 5de7 313e 1cd7 b63d ac36 c83c
00000020: 3b4c 12bd d932 06be
-0.0055955728 -0.04869675 0.054165334 0.036622025 -0.14492977 0.17373414 0.089277476 0.024440132
-0.03571723 -0.13105334
