going_modular/models/tinnyVGG_model.pt (torch, 36122 bytes, 10 tensors)

block1.0.weight f4 [10, 3, 3, 3]
00000000: 1fe1 163e 15d3 233e 1e97 37bd 043e 353e
00000010: c0ad 2bbd f51c 203d b375 bfbd a0ef e73d
00000020: 2ff5 2d3e 9072 10be 1f79 2b3e 8048 143d
00000030: 81bf 113e 8104 d73c f161 be3d ef4f ddbc
00000040: 4b18 183e c746 ea3c 70bb b7bd 27ad 493d
00000050: f231 b5bd 6894 b7bc 33ae 9fbd dde7 023e
00000060: cb64 1bbe b152 b5bd a2ec 5dbd e3cb ecbd
00000070: 226b 953c ec90 42be 1f12 323e d04f 27be
00000080: 9939 183e 5595 033d ce93 7fbd 6fc2 f33d
00000090: 7075 f63c 674b 1f3e d7cb ac3c 293b 78bd
000000a0: 7618 543d ad85 55bd 850c a63d fd06 303e
000000b0: 95fe e33d c217 acbd cfb2 e33d 8a4f 0d3d
000000c0: 115c c83d df12 f0bd e104 43be 151a 98bd
000000d0: 7714 17be a9c8 213e ba68 623d 7cdb a23d
000000e0: c769 783d 80ac 62bb ae12 1a3e fa32 0cbe
000000f0: 7240 453c 089c 06be 267b 723d 7ee7 87bd
00000100: ab12 713d 0ccb 24bd 4a67 233e 88ca e9bd
00000110: 4152 ebbd f71c ebbd 5e33 313e e220 833d
00000120: 0486 3d3e aec1 22be a49c 43be 753d 1abe
00000130: 99aa 04be 895e 9f3d 8310 8d3d 6caf 233e
00000140: dfc3 cbbd ea54 06be 6821 d13d e653 9fbd
00000150: e73e ef3d d9fb 3abd 987d e13d 281d 19be
00000160: 57df c6bd 8469 703d c5bb 263d 2ee8 48bd
00000170: d0f4 ea3d 8dfd 053e bce3 0ebe 9860 d2bd
00000180: 4174 343e 86f7 84bd 06b0 8bbd 71a9 3ebe
00000190: d4ac e1bd 24fc 443d a3f2 cfbc 6c08 0fbe
000001a0: de9f 943b 769a 06be 392d 27be b9fd d8bd
000001b0: 617e 2cbe edfb fabd 87f9 443e f1ca 143d
000001c0: 11d2 723d 7cd1 37be 8f72 01be 883d 83bd
000001d0: a375 f63c 3069 2dbe c6d2 a9bd 0cf9 ebbd
000001e0: 6f08 093a b2ad 92bd 3f91 5abc 288c 05be
000001f0: 6647 07be a1f0 e5bd dcea 86bd 438b 1bbe
00000200: f539 253e 8e78 1cbd f08c 293e 9d97 753d
00000210: 77e1 26be 245f 083e 51e3 58bd 1d22 97bd
00000220: 1f97 23be dbed 43be 4f7d 613d 153b 2cbd
00000230: 706e 993d 90bb 21be 7e4a 123e 78ac 10be
00000240: 0339 08bd 3095 243d 9c73 cb3d 9714 1f3e
00000250: e380 333e d045 1cbe 2254 463d c495 a9bd
00000260: 0ff3 acbc 1b89 13be b67a 333e b3a7 10be
00000270: e39a d23d ec76 8a3d ab09 803d 8622 d5bd
00000280: 1a17 333e 0e1a 2d3d f2cf ca3c cfaa 2dbe
00000290: ba74 a53d 3083 ecbc 2a90 b4bd ac45 293e
000002a0: d8be 2f3d 1c11 dabd 0c7d c7bd 2891 16bc
000002b0: b312 dc3d 646d 49bd 4fe2 e0bd dcf7 86bd
000002c0: 7939 13be 1d90 8c3d 1e8a 183e 4d87 39be
000002d0: d614 373d 4d9c cb3d 26f1 0e3d 515c 8cbd
000002e0: 11b8 cd3d 5a20 cf3d 3361 933d e783 0abd
000002f0: 53bc 50bd 1478 a93c 11bc 0abd f546 6abd
00000300: f52d fc3d 9a7c 293e 80e0 9abc ff15 30bd
00000310: f3af 3f3b 9f27 3abc b1aa 3d3d c520 5d3d
00000320: 93e6 32be 8953 91bd db05 263e 65b6 993d
00000330: 4bf8 1bbc 2180 edbd dffc f0bd f376 30be
00000340: 6a57 80bd a046 853d 5a78 fb3d 311e b63d
00000350: b91b 2ebe ebe8 ecbd ef59 f8bc b6b1 3e3e
00000360: 8cb0 e33c 8b53 4cbd 2600 a33d 0729 96bd
00000370: ab28 ffbd 06d0 0f3e 023e b3bd 5711 1ebd
00000380: d70e 44be acdc 033e df47 153e 69a1 8f3d
00000390: ae6a 09be 4e81 42be dd10 20be 36f5 123e
000003a0: 4c3c bd3d c6d4 253e e26d ce3d 5474 473d
000003b0: 635b f6ba 9dde 15be 27d9 28be e553 38be
000003c0: 6b60 a13d 127c c1bd a79b 1ebd 10d4 e2bd
000003d0: 74a4 0fbd 37b4 0abe 96c4 00be 62bd 823d
000003e0: cc45 6abd 7a51 f33d c0e2 7cbd 3390 10be
000003f0: 2015 0bbd a90e bfbd 902a 71bd d59b 3bbe
0.14734314 0.1599849 -0.04482185 0.17699438 -0.041913748 0.039090116 -0.09348621 0.11325002
0.16988061 -0.14106202 0.16745423 0.036201954 0.14233209 0.026247265 0.092960246 -0.027015654
0.14853017 0.028598202 -0.08971298 0.049237397 -0.08847417 -0.022409633 -0.07796898 0.12783761
-0.15175168 -0.08853663 -0.05418075 -0.11562326 0.018239561 -0.19000596 0.17389725 -0.1633904
0.14865722 0.032124836 -0.062396817 0.1190232 0.030085295 0.15556107 0.021093292 -0.060603295
0.05178114 -0.052129436 0.08107857 0.17190166 0.11132542 -0.08402969 0.111180894 0.034499682
0.09783185 -0.117223494 -0.1904483 -0.0742685 -0.147539 0.15799202 0.055275656 0.079520196
0.060647752 -0.0034587681 0.15046188 -0.13691321 0.012039291 -0.13145459 0.059199475 -0.066359505
0.058855694 -0.040232703 0.1595737 -0.11415583 -0.11490298 -0.11480134 0.17304751 0.06402756
0.18508154 -0.15894195 -0.19102722 -0.15062506 -0.12955703 0.07781703 0.06887915 0.15984887
-0.09949469 -0.1311833 0.1021145 -0.07779674 0.116819195 -0.045650337 0.11010283 -0.14952528
-0.097105674 0.058694378 0.040706415 -0.04904955 0.114724755 0.13085003 -0.13954061 -0.1027233
0.17622472 -0.06492524 -0.06820683 -0.18619324 -0.110192925 0.048092023 -0.025384253 -0.13968056
0.004535659 -0.1314486 -0.16325845 -0.10595269 -0.16845085 -0.12255082 0.19235812 0.036326353
0.059282366 -0.17951006 -0.12641357 -0.064082205 0.03008539 -0.16934657 -0.08292155 -0.11522111
0.0005227392 -0.07162036 -0.013340293 -0.13041747 -0.1321083 -0.11227537 -0.065877646 -0.15189843
0.1613539 -0.038200907 0.1655767 0.059959043 -0.16296946 0.13317543 -0.05295116 -0.073795535
-0.15975617 -0.19133703 0.055051144 -0.042048533 0.074917674 -0.15794206 0.14286229 -0.14128292
-0.033257496 0.04018134 0.0993416 0.15535198 0.17529635 -0.15261006 0.04842008 -0.08280519
-0.021111993 -0.1440777 0.1752728 -0.14126472 0.102834485 0.06760964 0.06251844 -0.104069754
0.17489281 0.042261176 0.02475736 -0.1695969 0.080789044 -0.028871149 -0.088165596 0.16530484
0.042906612 -0.106477946 -0.09740648 -0.009189881 0.10745754 -0.04917659 -0.10980665 -0.06590244
-0.14377393 0.06863425 0.14896438 -0.1811802 0.044697605 0.099419214 0.034897946 -0.068535455
0.100448735 0.101135924 0.07196274 -0.033817198 -0.05096085 0.02068714 -0.03387076 -0.057196576
0.12313453 0.16551438 -0.018905878 -0.042989727 0.002924916 -0.0113619855 0.046305362 0.05398633
-0.1747077 -0.07096011 0.16213171 0.07505492 -0.009519647 -0.11596704 -0.11766981 -0.17232876
-0.06266673 0.06507611 0.122788146 0.08892477 -0.17002763 -0.11567863 -0.030316321 0.18622479
0.027794145 -0.04988436 0.07959013 -0.07332044 -0.12458929 0.14044198 -0.087520614 -0.038590755
-0.19146286 0.12877148 0.14578198 0.070132084 -0.13419601 -0.18994638 -0.15631433 0.14351353
0.09240016 0.16194448 0.10079552 0.048694924 -0.0018795546 -0.14635701 -0.16489087 -0.18000753
0.078797184 -0.09447493 -0.03872266 -0.11075604 -0.035068944 -0.13545309 -0.12574992 0.06383778
-0.05719547 0.11880775 -0.061739683 -0.14117508 -0.033955693 -0.09328968 -0.05887848 -0.18321164

block1.0.bias f4 [10]
00000000: d076 bc3d d380 43be 5dd5 f43d 6f88 133e
00000010: 1b4e 3a3e 2e07 3abd 3deb 21be 129b 2f3d
00000020: 62a2 d93d f724 44be
0.09202349 -0.19092111 0.11954758 0.14407514 0.18193857 -0.045417003 -0.15812393 0.042872496
0.10626675 -0.19154726

block1.2.weight f4 [10, 10, 3, 3]
00000000: b7f2 c3bc 0f5e 81bd 9256 16bc 5c7a 54bd
00000010: ad6a 30bd 6feb 08bd 011e cdbd 3029 b13d
00000020: 7307 b53d 5c75 87bc 70ad 44bc e334 30bd
00000030: 98f3 c2bd 9814 d2bd bc77 203d c60d 6dbd
00000040: 7bc8 8abd 2dc0 06bc 04c4 0fbd 0cac 0bbd
00000050: 1703 5e3b 6518 b7bc a6a4 14bd dcbc 4ebd
00000060: 2faa afbd 6a06 b53d 7acc 2cbd 34e5 e43c
00000070: 88c6 15bd 9c58 0c3c 0b47 c93d 44f4 463d
00000080: ed13 bbbd 6164 2b3d deef cc3d f53f e33c
00000090: d9c2 903d eada d43d e749 84bc 2547 b33c
000000a0: de05 96bd f6e7 b1bc b7e0 9f3d 0e61 5d3d
000000b0: 2496 88bd fe1b adbd f985 93bd ae0b d5bd
000000c0: 7694 a6bd 4a8b d5bc 11b1 913d 8c87 903c
000000d0: d532 a4bd 782e adbd c2c9 563d 4994 a0bd
000000e0: e1a4 54bc ba1d 4f3d 71d2 47bd 9950 3cbc
000000f0: f853 16bc f04a ccbc 12ea 5abd 616f c0bd
00000100: a980 aebd 1d31 67bd 1183 d03d 3c8c 50bd
00000110: b3f8 90bd 7454 d13c 2bfe ed3c bc8f 6c3d
00000120: 6d1a a43d 5977 703d 6009 d6bd d441 193c
00000130: 29c9 823d 08a1 1fbc fa6b 7ebd fcd0 cd3d
00000140: 5476 21bd 6fd1 75bd 45a0 c2bd 6049 9a3b
00000150: 5653 3f3d 4c26 bf3c 64c2 aa3c 23b8 a3bd
00000160: 1a9b c9bd 804b f33a 4e63 c53d 492e 7a3d
00000170: 5322 7abd 36b6 5bbc 5c78 9ebd e001 4fbd
00000180: c2bb 9e3c 6d61 6c3d ac7c b33d db36 c6bd
00000190: 9e53 903d 9f3e 98bd 49aa 213d 3fb7 b63d
000001a0: 8d93 c33a c56b c43d 7cef b7bd aae0 24bd
000001b0: 7907 7c3d 65d9 bbbc d67d b0bc 5cce 33bd
000001c0: 09ec 943d ab12 543d cd86 0a3d a55d 72bd
000001d0: c113 afbd 9ce4 3a3c a4c6 ff3c 916c 47bd
000001e0: 5395 f1bc 2ac8 913d 5964 093c 99e0 9b3b
000001f0: 6f8f d4bc 797f c3bd 2d04 cbbd 6b7d 4ebd
00000200: c191 5bbd 8e72 063d 597f fbbc effd 28bd
00000210: f4ce cd3d af52 163d f7dd 993d eff0 50bd
00000220: 575b 30bd 36a9 1e3d 8fd1 8fbd 4f1c 8dbd
00000230: c222 a7bb 34eb 1dbd 8ad1 a1bd d20f 803d
00000240: e599 ad3d 0615 8c3c 3259 96bc 4df6 c7bd
00000250: 2c43 1dbd 75d6 db3c 2f96 4b3d 8453 5abc
00000260: 3bb2 2abd d3ad 703d 6ae1 abbd 4f81 883d
00000270: 515d 27bd e7fb d53a 7694 aabc d751 513c
00000280: 377d 02bd 80fb 9c3d 4e3b 36bb 376e a83d
00000290: 0979 cf3d 3c76 52bd 5092 9dbd 9623 ad3d
000002a0: e22b a93d f1da a4bd b4c9 05bc 15e2 d4bd
000002b0: b9b7 b0bd f4c7 a63c 64b9 e53c 5c0c b73c
000002c0: 8404 ebbc 152a c73d 30ed 763c d9c5 7ebd
000002d0: 008c c3bb 545e cf3c aa32 173d b0a4 98bd
000002e0: 5ad1 213d 8e93 5cbd c361 b3bd 19d4 6bbd
000002f0: e531 d03d 8d8b b83d c750 c13d 2272 7d3d
00000300: c715 a33d 7029 67bc 7a90 6dbd daba 573d
00000310: 8bba 5fbd 55b0 91bd dedf 09bd 5437 b53c
00000320: 4644 5e3d b4b2 27bd 021e 7ebd b8f6 683c
00000330: d37d 7ebd c98c 8cbd c60d 613d 8c0e 91bc
00000340: 2744 c53d a500 d23d 0624 013d 9e97 143d
00000350: 5cda c63c c05f d83a b038 fbbb 40e4 bd3a
00000360: 7e3a 213d 9bb7 c83d 84c9 dfbc 9d82 36bd
00000370: c81c d1bc 8a97 50bd a0d4 923c 5324 a13d
00000380: d5cf a83d f63a 463d 1ddf 9ebd c6b9 67bd
00000390: 3cb9 bdbc 8c2a 9fbc 400b 0e3c 852b c6bd
000003a0: c261 063d fbaf a4bd 8498 88bd 327a b3bd
000003b0: 5119 bc3d 736c ccbd efd9 a23d a03a 68bb
000003c0: d8d9 48bc f306 873d f89f 1fbc 8d63 873d
000003d0: 4915 9c3d 776d bbbd 0622 263d 5403 a33c
000003e0: 54aa b93c 8021 7c3c 8c32 ec3c 22b4 4fbd
000003f0: 20f5 5cbc 331c cd3d a309 913d 70c3 81bb
-0.023919446 -0.063167684 -0.009175913 -0.051874503 -0.043070484 -0.033427652 -0.100154884 0.08650434
0.088393115 -0.016535453 -0.012004241 -0.043019187 -0.09519118 -0.10257834 0.039176688 -0.057874463
-0.0677652 -0.008224529 -0.035099044 -0.034099624 0.0033876353 -0.0223505 -0.036289833 -0.05047308
-0.08577382 0.08839114 -0.04218719 0.027941324 -0.036566287 0.008566048 0.098280035 0.048572794
-0.0913466 0.041843776 0.100066885 0.027740458 0.07068414 0.10393317 -0.01614852 0.02188451
-0.07325338 -0.021717053 0.07806533 0.054047637 -0.06669262 -0.08452605 -0.07203288 -0.10402618
-0.081337854 -0.026067395 0.07113851 0.017642759 -0.08017508 -0.08456129 0.052438505 -0.07840783
-0.012978763 0.05056546 -0.048784677 -0.011493825 -0.009175293 -0.024938077 -0.053445883 -0.09396244
-0.08520634 -0.056443322 0.10181249 -0.050914988 -0.070786856 0.025552966 0.02905186 0.057754263
0.08012853 0.05870757 -0.10451007 0.009354074 0.063860245 -0.009742983 -0.062114693 0.10049626
-0.039419487 -0.060014185 -0.09503225 0.004708454 0.046710335 0.023333691 0.020844646 -0.07994106
-0.098440364 0.001856193 0.096380815 0.061079297 -0.06106789 -0.013410142 -0.077378005 -0.050538898
0.01937664 0.0577101 0.08764014 -0.096784316 0.07047199 -0.07433819 0.039469037 0.0892167
0.0014921293 0.09590868 -0.08981225 -0.04025332 0.061530564 -0.02293081 -0.021544378 -0.04389797
0.07271583 0.051775616 0.033819962 -0.059171338 -0.0854869 0.011407044 0.031222649 -0.04868752
-0.029490149 0.071182564 0.008385741 0.0047569987 -0.0259473 -0.09545798 -0.09912906 -0.050412577
-0.0536058 0.03282409 -0.030700373 -0.041257795 0.10049239 0.036699947 0.075130396 -0.051011022
-0.04305586 0.03873559 -0.07022392 -0.06890165 -0.005100579 -0.038554385 -0.079012945 0.062530175
0.08476619 0.017099869 -0.018353079 -0.09763775 -0.03839414 0.02683566 0.049703773 -0.013325576
-0.04167388 0.05875952 -0.08392604 0.06665289 -0.040860478 0.0016325683 -0.020822745 0.01277586
-0.031857695 0.07665157 -0.0027806344 0.08224147 0.101305075 -0.05138229 -0.076939225 0.08454053
0.08260323 -0.08049572 -0.008165766 -0.10394684 -0.08628792 0.020359017 0.028042503 0.02234476
-0.028688677 0.097248234 0.015071198 -0.0622004 -0.005967617 0.025313534 0.03691355 -0.07453287
0.039506294 -0.053851657 -0.08758881 -0.05757532 0.101657666 0.09010992 0.09439235 0.061876424
0.07963138 -0.014109001 -0.05799911 0.05266843 -0.05462126 -0.07113711 -0.033660762 0.022121109
0.05426433 -0.04094191 -0.062040336 0.014218979 -0.062131714 -0.0686279 0.054944776 -0.017707132
0.0963214 0.10254029 0.031528495 0.036277406 0.024274044 0.0016508028 -0.00766667 0.001448758
0.039362423 0.09800645 -0.02731777 -0.044558156 -0.02552642 -0.05092577 0.017923653 0.078682564
0.08242766 0.048396073 -0.07757399 -0.05657365 -0.023159616 -0.019429468 0.008669674 -0.096762694
0.032808073 -0.08041378 -0.06669715 -0.08763541 0.09184516 -0.099816225 0.07951724 -0.0035435334
-0.012258969 0.06593122 -0.009742729 0.06610785 0.07621247 -0.09151738 0.04055979 0.019899048
0.022664227 0.015388846 0.028832696 -0.050708897 -0.013486177 0.10015144 0.07081916 -0.0039600655

block1.2.bias f4 [10]
00000000: e1a1 0a3c 472e b43c 2046 bcbd 66e8 adbd
00000010: 9c17 443c 7cd6 28bd dbed 06bb 9e1a c6bc
00000020: 9983 863c 1b6a 883d
0.0084614465 0.021994723 -0.09193063 -0.08491592 0.01196852 -0.041220173 -0.002058855 -0.024182614
0.016420173 0.06660863

block2.0.weight f4 [10, 10, 3, 3]
00000000: 564f 0fbd b1d7 ac3d a861 aa3d 35b9 a5bd
00000010: 34c1 a6bd 39bd aebd 77a4 6cbd f026 28bd
00000020: 6287 02bc edad d2bc ad5c 5abd 3150 09bd
00000030: 19ab 1cbd dda2 d33d 6f27 20bd 8fd9 9abd
00000040: baef 323d a337 c9bb bf44 a53d 41e3 863d
00000050: 5f55 c63d b619 9ebd b9c7 8a3d 5f2c b53d
00000060: 0237 55bd 4d6e c63d e1d4 a13d 4c4d 973a
00000070: 272c 503d 88f3 16bd 1249 bcbd 6d47 da3c
00000080: acb7 003d d016 8dbd cd66 513d 7468 b8bd
00000090: 46a0 b93d 14e2 d03d ea98 ea3c 859b 87bd
000000a0: 91c5 513d 8c6c 923c 805d ea3c a280 0d3d
000000b0: bc2c a43d 8e95 39bd 373f c2bc 407c eb3c
000000c0: 6224 3c3c ba14 ae3d 38c8 62bd 29ad 7bbb
000000d0: 3e58 a13c 8456 e5bc 8337 933d e742 3d3c
000000e0: 1a88 c7bd 6c5f 3abc d1b1 43bd a60f 283c
000000f0: 6de9 47bc 9908 d6bd 0811 9dbc 67f6 1fbc
00000100: 54ab fbbc a6e6 c63d 26a8 b9bc 6881 8b3d
00000110: 8fda d83c 2fa9 b5bd 35ec cd3c 83a4 b33d
00000120: ca34 8dbd cd89 8bbd fd4f d33d 0b76 ad3d
00000130: bedf 70bd 85e7 813d c0f0 5cbc 14d7 d4bd
00000140: 17c3 013c 3a7f 0a3d d725 02bd f380 153d
00000150: 242b b9bd a82f 953d eeb4 b73d b0b6 6c3d
00000160: 5ae7 8f3c 8a19 0d3d bb32 9cbd d3c3 d7bc
00000170: 15de 24bc 8244 70bd 9f73 9fbd 4334 913d
00000180: 2781 923d f80e c4bd af63 093d 45ad 2f3d
00000190: f517 cd3d 08d1 793d 047d c63d 2151 0dbd
000001a0: fd36 973d f89d af3d 69d6 cbbd d243 adbd
000001b0: 9cc7 ae3c 5ac1 6b3d 8f80 56bd 8034 3e3c
000001c0: 0076 20b9 cc8f da3c 0b01 68bd 0287 733d
000001d0: 9d8f 8f3d f2c9 95bd 00d8 853a 0056 9939
000001e0: cea4 0a3d d71b c93d 943c fd3c 8435 c4bc
000001f0: 25e3 c13d 264c 24bd 1db8 fabc acf2 eb3b
00000200: 1463 a4bd eeec 3b3c 3e77 92bd 559e 313c
00000210: 1878 253c 4210 6f3c 600c b6bd a009 cdbd
00000220: 96a8 463d e222 b93d 7390 bfbd 85eb 1f3d
00000230: 9ee9 9ebd c389 d83b fdd8 c83d fbc4 a33d
00000240: 9ad6 9dbd f989 853d 9d85 613d f364 28b9
00000250: 1d21 d13d 797a 2bbd 42f2 c8bc d232 5abd
00000260: 4d95 783c 9ca8 e43c ec99 093c 9fec 72bd
00000270: 1d55 42bd 1ae2 123d 0e49 bdbd 0469 86bc
00000280: bd76 18bb 5de5 2ebd ba1f 1d3d 81a0 de3b
00000290: 618f 973d 0761 19bc b63f 88bd 7087 983d
000002a0: 172d 713c 964e f7bc 3049 8ebd 7980 ca3c
000002b0: c4e0 cdbd be80 e33c 0991 553d 2d55 bdbd
000002c0: d24d 8dbd 8628 9bbd 157d b53d 4f91 b73d
000002d0: 9364 d73b a4a2 ca3d b669 10bd 769d d1bd
000002e0: 66b7 163d 57ea 183d fe9c d33d 524b 42b8
000002f0: b76a a53d ba1b 843d 8728 9c3d 0254 d6bd
00000300: f49d b13d d022 b8bd 9e5f c13d 4a8d 94bb
00000310: ed89 bfbd 2e3a ef3c e4c3 afbc 7ce6 c1bd
00000320: 3687 1cbd b810 323c cf22 a83d 16bc 04bd
00000330: 8539 803d d845 583c 80db 683b 8f3a a53c
00000340: 90ac 8dbd 0370 b3bd a6a9 07bd bc2a c9bd
00000350: 8a59 49bd 29e8 9e3b e62d 8ebd 3917 33bd
00000360: 35d5 9bbc 1366 48bc d8c4 6ebd a68a a33b
00000370: ef8c 73bc 3858 f63c 185d 993b ebfc 57bd
00000380: 55e1 14bd 3b38 9fba e1b6 86bd a230 073c
00000390: 78e8 f3bb 3484 273d b657 cc3c b18e a13d
000003a0: 75c3 63bb 8584 9fbd 9d3f 413d b5c2 91bd
000003b0: f804 6cbc a4a1 0bbd 05a2 23bd 157d 1fbd
000003c0: b483 c63d 7481 773d dfd2 ef3c 7fc7 cb3d
000003d0: db84 c2bd 389e 903c 6c2d 8b3d 657a 903d
000003e0: 84a4 aabd 1975 1b3d 71eb 73bd 8bf4 70bb
000003f0: e32f b4bc 2a40 b4bd e9ed cdbd b106 8ebd
-0.03498777 0.08439577 0.08319408 -0.08091966 -0.08142319 -0.08532185 -0.057774033 -0.04105276
-0.007966848 -0.0257177 -0.05331104 -0.033523742 -0.03824911 0.10333798 -0.039100107 -0.07561027
0.043685652 -0.0061406656 0.08069753 0.06586314 0.09684252 -0.07719748 0.06776375 0.08846354
-0.052054413 0.09689007 0.079019316 0.0011543422 0.050823357 -0.036853343 -0.091936246 0.026645387
0.031425163 -0.06889117 0.05112343 -0.09004298 0.09063773 0.10199371 0.028637368 -0.0662146
0.051213805 0.017874025 0.028609037 0.034546502 0.08016345 -0.045308642 -0.023711784 0.02874577
0.011483284 0.08500047 -0.055366725 -0.0038402772 0.019695397 -0.027995355 0.071883224 0.011551595
-0.09742756 -0.011375289 -0.047777 0.010257637 -0.012201649 -0.104508586 -0.01917316 -0.009763337
-0.030721344 0.097119614 -0.022663187 0.06811792 0.026471404 -0.0887016 0.025137046 0.087716125
-0.06894834 -0.06813393 0.10317991 0.084697805 -0.058807127 0.06342987 -0.013485134 -0.103925854
0.007920048 0.03381274 -0.031774368 0.03649993 -0.090414315 0.0728448 0.089700565 0.057791412
0.017566372 0.034448184 -0.076268636 -0.026338493 -0.010062714 -0.058659084 -0.07785725 0.07090046
0.0715354 -0.095731676 0.03354233 0.042889852 0.10014335 0.060990363 0.096918136 -0.0345012
0.07383535 0.08575052 -0.09953005 -0.08460201 0.021335416 0.05755744 -0.052368697 0.011609197
-0.00015302747 0.026679896 -0.05664162 0.059454925 0.07009814 -0.07313909 0.0010211468 0.0002924651
0.033848576 0.09819763 0.030912675 -0.0239513 0.094671525 -0.040111683 -0.03060537 0.0072005596
-0.0802671 0.011470063 -0.0715165 0.010840972 0.010099433 0.0145912785 -0.08889079 -0.100116014
0.04850062 0.090398565 -0.093537234 0.03904297 -0.07759403 0.0066082194 0.09807012 0.079965554
-0.077069476 0.06520457 0.055059064 -0.00016059335 0.10211394 -0.041864846 -0.02452958 -0.053271122
0.015172315 0.02791243 0.008398514 -0.05930769 -0.04744445 0.03586016 -0.0924245 -0.016407497
-0.0023264133 -0.042699207 0.038360335 0.006794036 0.07400394 -0.009361512 -0.06652777 0.07447708
0.014720223 -0.03018884 -0.06947553 0.024719464 -0.10052636 0.02777135 0.05214027 -0.092447616
-0.06899609 -0.075760886 0.08861748 0.08963262 0.0065732687 0.098943025 -0.035257064 -0.102351114
0.036795996 0.03733286 0.10332678 -4.6323352e-05 0.08076995 0.06450601 0.076249175 -0.10465242
0.08672705 -0.08991015 0.09442066 -0.0045334445 -0.09352479 0.029202547 -0.021455713 -0.094677895
-0.038214885 0.010868244 0.08209764 -0.032405935 0.06260971 0.013200246 0.0035531223 0.020169524
-0.06917679 -0.08761599 -0.033120774 -0.09822604 -0.049157657 0.004849453 -0.06942348 -0.04372332
-0.019022563 -0.012231368 -0.058293194 0.0049908934 -0.014865144 0.030071363 0.004680287 -0.052731436
-0.036347706 -0.0012147495 -0.0657785 0.008251341 -0.007443484 0.040897563 0.024944168 0.07888544
-0.0034753953 -0.07788948 0.047179807 -0.071172155 -0.0144054815 -0.0340897 -0.039949436 -0.038937647
0.09693089 0.06042619 0.029275356 0.0995016 -0.094979964 0.01765357 0.06795773 0.07054595
-0.0833216 0.03795347 -0.059550706 -0.0036766853 -0.02199549 -0.08801301 -0.100551434 -0.0693487

block2.0.bias f4 [10]
00000000: 3e19 f23c ce17 7dbc 1ecc c13c 437b a23d
00000010: 4cd0 5abd 0084 51bd 4094 543d fecb fd3b
00000020: c012 3ebc f49f bdbd
0.029553052 -0.01544757 0.023656901 0.079336666 -0.053421304 -0.051151276 0.051899195 0.007745265
-0.01160115 -0.09259024

block2.2.weight f4 [10, 10, 3, 3]
00000000: d4c7 b63d a0a5 82bb 4d0b 9fbc 0953 31bd
00000010: d544 aabc 42dd 513d 2704 1ebb e3a4 b83d
00000020: 1e0c c8bb 29c5 77bc 94b4 733d e2c1 32bb
00000030: 455a acbc a24d 103d 893f aa3d fb7c d73c
00000040: 0352 963d e4e5 8b3d f281 f33c ac9c 153d
00000050: 9ff5 0a3d 6006 323c d385 b73d 1939 c73d
00000060: c87f 193d 3062 aebb 7195 c13d bd8a a8bd
00000070: 8e34 9e3d e005 643d cd2c 8a3d 7722 07bc
00000080: da3e a1bd 6aca 993d 1a11 3dbd dcff e23c
00000090: 069c 743d 61be c9bd 7039 e53b 0a5f 19bd
000000a0: 7d38 993d 3073 89bd 1f13 833d 799d 863d
000000b0: d634 6e3d e53e cf3d acc7 823c fbaa c3bd
000000c0: 9b1b 9a3d 881a 1e3c 6017 093b aaa4 cdbd
000000d0: 7014 c2bc 848f 51bd 9a22 d33d c163 993d
000000e0: dda6 a03d 3692 933d 052b 86bd cf1f 3abd
000000f0: 6e75 29bd 90c8 2dbd c3a4 a73d eda2 123d
00000100: c20c ad3d 25b2 a1bb 9c6b c0bd 9d29 fabc
00000110: c6c8 973d 0585 833d face 053d be09 fdbc
00000120: 937e c9bd 84fe 67bd fa1b 613d fa26 2ebd
00000130: 9686 4e3d 44c6 eb3c 06d5 25bd 997c 833d
00000140: c4bc 0abd 6081 65bb 2c76 24bd a0c6 ccbd
00000150: 303b 8b3c 5487 f93c 9b61 59bd 056e 843d
00000160: 9aa7 c1bd fc19 d0bd 7168 85bd bb59 15bd
00000170: ea03 40bc 1add a6bc 6b24 453d 5c67 bdbd
00000180: 0ff5 7e3c f2d8 f53a 85b0 e43c ef99 d63d
00000190: 18dd 843d 8e10 6fbd cde6 b0bd 250f d1bc
000001a0: 3894 58bd abd0 163d 8480 7d3a 08a3 ad3d
000001b0: 6379 293d cd17 9fbc 76cc 693b 5ac9 ce3c
000001c0: 5b27 56bc d82f ae3d c6bf a8bd 6b87 523d
000001d0: b094 89bd fe55 bdbd d4ae b2bc 6cd1 513d
000001e0: 2165 983d 895a d83c 5c76 16bc 394c c0bb
000001f0: c3f0 2ebd d548 1abc 70a7 eebb 49b4 b73d
00000200: d2ae 7c3d 39c0 acbd 009d e439 b8c7 84bd
00000210: 2413 89bc b592 abbd cc7a e03c 3eaa 9bbd
00000220: 951e d53d 1f08 a33d 069a 94bd d33d cbbd
00000230: e0c4 863b 100d f1bc a47f fd3c 8721 92bd
00000240: f849 313d 073c babd 2a35 63bd d88f 62bd
00000250: b56b 513d 3ffd 2bbb 7228 cfbd d8d7 75bd
00000260: 1b31 47bd b168 c8bd a348 5c3c 479e 193d
00000270: 9be0 9ebc 2203 2cbd ba96 32ba d186 abbd
00000280: 327a 83bd 1ca0 1ebb 01c8 bf3d c8c4 04bd
00000290: 0e01 563d faea 29bd 7cdd e5bc 0781 cdbd
000002a0: 11da b23d df34 d23d c017 11bb 9729 893d
000002b0: 6393 b03d 0276 563d e25c 5e3d 9483 cdbd
000002c0: b8da cabd f8b1 a5bd 120c 073d c5ba babd
000002d0: a838 a4bd d443 50bd c183 c6bd d270 dd39
000002e0: 535b 7d3c a18e 7bbd ecea 8d3d a3cf 22bd
000002f0: 6c7a f0bc be78 a43d 8457 b93d 4521 46bc
00000300: 6df9 9abd 0b99 58bd ddee 5b3c 0818 7d3d
00000310: 6af2 563d d5a8 3ebd 9fb0 cbbd e97a bcbd
00000320: 4278 08bd f70e c93a 1cfd 40bd 4542 aabd
00000330: 909a 3a3c f5e0 aabd 2853 a5bd 1c5e aebd
00000340: abf3 e5bc b19f bf3d 7427 2b3d ba8f 43bc
00000350: c61a b63c 2370 2e3d 7996 9d3a 5be9 acbd
00000360: 5801 85bd 4da8 92bd a069 2fbb 809d c5bd
00000370: 3c01 9dbc 96e1 1dbd 3bdb d33d 9178 af3d
00000380: 8ac9 7a3d 00b6 c13b 7cca 0bbd ac41 dc3c
00000390: 1828 95bd 5325 38bd 9477 adbc e8e2 cabc
000003a0: 7a80 ccbd f2a2 2b3d 3bbd b23d 5c37 6cbd
000003b0: fb94 ec3c 707d 40bc 9ecd 5ebb c618 d93b
000003c0: 920a bc3d e46c 6f3c 7d91 87bd 1369 1bbd
000003d0: ebc1 523d c688 063d f48c 043b 24b6 64bc
000003e0: 9b23 28bd ef66 19bd bed8 63bd 2d67 8d3c
000003f0: bc82 f23c c14e a53d 4014 c3bc 7045 f73b
0.08924833 -0.003987029 -0.019414568 -0.04329208 -0.020784775 0.0512364 -0.0024111362 0.09015825
-0.00610496 -0.01512269 0.059498385 -0.0027276208 -0.021039138 0.035230286 0.083128996 0.026304713
0.07339861 0.068309575 0.029725049 0.036526367 0.03392565 0.010865778 0.08961072 0.097276874
0.037475377 -0.0053217635 0.09452332 -0.08229587 0.07724868 0.055669665 0.06746826 -0.008247963
-0.07873316 0.075093105 -0.046158887 0.027709894 0.059719108 -0.09850765 0.0069953725 -0.037444152
0.074814774 -0.067114234 0.064001314 0.06573004 0.058155857 0.10119418 0.015964352 -0.09554096
0.075247966 0.00964988 0.0020918474 -0.10041173 -0.023691386 -0.051162258 0.10309334 0.0748973
0.07844327 0.07205622 -0.06551174 -0.04544049 -0.041371755 -0.0424276 0.08185723 0.03579991
0.08449699 -0.0049345666 -0.09395525 -0.03053742 0.07411341 0.06421856 0.03266809 -0.030888434
-0.09838595 -0.05663921 0.05495832 -0.04251764 0.05042132 0.028781064 -0.040486358 0.064202495
-0.033871427 -0.003501974 -0.04015176 -0.09998822 0.016995996 0.030460037 -0.0530716 0.06466297
-0.094557956 -0.10161206 -0.06514061 -0.036462527 -0.011719683 -0.020369101 0.048130434 -0.0924823
0.015561356 0.0018756671 0.027916202 0.10478579 0.06487483 -0.058365397 -0.08637772 -0.025519917
-0.052875727 0.036820095 0.00096703344 0.08478361 0.04137553 -0.019420529 0.0035674847 0.025242496
-0.0130709065 0.08505219 -0.08239703 0.051398676 -0.06717813 -0.09244917 -0.02181188 0.05122511
0.07441164 0.026410358 -0.0091834925 -0.0058684614 -0.042710077 -0.009416779 -0.0072831437 0.089699335
0.06169016 -0.08435101 0.00043604523 -0.06483406 -0.01673276 -0.083775915 0.027402304 -0.076008305
0.10406224 0.07960533 -0.0725594 -0.099239014 0.004112825 -0.029425174 0.030944653 -0.07135301
0.043283433 -0.090934806 -0.055470623 -0.05531296 0.051128108 -0.0026243476 -0.10115136 -0.060020298
-0.048630815 -0.09785593 0.013445052 0.03750446 -0.01939421 -0.041995175 -0.0006812621 -0.083753236
-0.06419791 -0.002420432 0.093643196 -0.032414228 0.0522471 -0.041483857 -0.028059714 -0.10034376
0.08732999 0.102639906 -0.00221394 0.06697386 0.08621862 0.052358635 0.0542878 -0.10034862
-0.099049985 -0.080905855 0.032970496 -0.09117655 -0.08018619 -0.050845936 -0.09693099 0.00042236462
0.015463668 -0.06141532 0.069295734 -0.0397488 -0.02935525 0.08030842 0.090498954 -0.012092893
-0.075671054 -0.05288033 0.013423649 0.061790496 0.052477278 -0.04654773 -0.09945797 -0.09203131
-0.03331781 0.0015339543 -0.047116384 -0.08313421 0.01138939 -0.083436884 -0.080725014 -0.08514044
-0.028070292 0.093566306 0.041785672 -0.011936123 0.022229563 0.04258741 0.0012022994 -0.084429465
-0.06494397 -0.07161007 -0.0026765838 -0.09649181 -0.019165628 -0.038545214 0.10344549 0.08567918
0.06122736 0.0059115887 -0.03412865 0.026886784 -0.07283038 -0.04495747 -0.021175183 -0.0247664
-0.099854425 0.041903444 0.08727499 -0.057669982 0.028879633 -0.011748657 -0.003399707 0.0066252677
0.091817036 0.014613364 -0.066195466 -0.037942003 0.051454466 0.03284528 0.0020225616 -0.013959441
-0.04104958 -0.03745168 -0.055626623 0.017261112 0.029603355 0.08071662 -0.023813367 0.0075461194

block2.2.bias f4 [10]
00000000: 6167 a23d 3a55 a63d f157 2c3d c1a4 c4bd
00000010: 1ab5 353c aad4 17bd e4bd f2bc f3d3 9b3d
00000020: d3b3 12bd 0b9b 9abd
0.07929874 0.081217244 0.042076055 -0.09601737 0.011090541 -0.037068047 -0.029631563 0.076087855
-0.035816025 -0.07549103

classifier.1.weight f4 [3, 1690]
00000000: 3b2c aabc 02bb 673c 50fb 20b8 a5ae ba3c
00000010: 99aa 713b deeb c3bc b430 9b3b d68a ab3c
00000020: fe57 613c 9254 c43b ef4c a0bc 89d9 81bc
00000030: b34e 7a3c b61a 8fbc 19b9 8d3b 076d 8ebb
00000040: 36ea e13b 06d8 a939 4836 a2bc 20be 33bc
00000050: 7f9d a33c 3dbe d63a 5e47 353c 371c 5ebc
00000060: 0611 933c d791 d4bb ff78 19bc 4f46 753b
00000070: f372 22bc 3abe 33bc 6e52 9abb c83f 27bb
00000080: fb3a 76bc 65cc e93b 1b03 cbbc 82de 603c
00000090: b894 ae3c 86c8 2d3b 33b8 e5bb b6fb bfbc
000000a0: e2c7 283c 6dd3 993c d2be a03c 3235 813a
000000b0: 36e7 e43b 76e1 b53c 7acf 243b 9aed 52bc
000000c0: b0a6 c6bc 4b41 1b3c be32 073c 548c a63c
000000d0: 9e6c 5dbc 3e91 193c 2c30 15bc a0cf e9bb
000000e0: cef0 553c 5555 bfbc 0fb3 8a3c 3968 283c
000000f0: 0f73 7ebc 5989 393c 9b8b ecbb d0d2 893a
00000100: 9dcf fdbb fa39 ccbc 6a24 6bbb fc40 313c
00000110: a109 80bb 909e 56bc 3203 98b9 6b79 633b
00000120: 2720 ffbb 5a87 a3bc ebfc 67bc 0267 a5bb
00000130: 0ff7 fa3b 5784 a73c da8a 26ba 94bd f93b
00000140: dfae 533c 5e8f 3fbc a6c7 16bc 5cd1 763c
00000150: f1dc 863c f9bb 9b3b 1fe4 a2bc 203b 503c
00000160: f4b7 adbc 4b26 353c bc2a e63a 7cb6 de3b
00000170: 2e12 cbbc 4642 1dbc 8405 183c d46d 903c
00000180: b442 03bc d087 a93c 95b7 d0bb 202a 81bc
00000190: 0976 3fbc fe71 ce39 7799 b1bb 9335 2e3c
000001a0: 1a50 6ebc df74 02bc 3ca4 cdbc 106f 9a3c
000001b0: 6a45 b9bb 3d79 a5bc e608 0dbb 93a1 8aba
000001c0: 1a97 ba3b 933f 7bbb 1604 683c d527 1cbc
000001d0: 2c77 0abc 5786 e2bb 550a 563b 6f64 973c
000001e0: b82f 0dbb 3153 903c 3bde 933c 5562 60bc
000001f0: a2bb 4dbb 1954 4ebc 3c14 133c 51d3 1ebc
00000200: f19d cd3b 3866 8739 c3b6 8cbc 6a88 8fbc
00000210: 8b9c cbbc 4df2 70bc 3234 ba3b 1826 c839
00000220: 9ad7 8c3c 2d50 b8bc 0600 f3ba 762a bcbc
00000230: 05f0 85ba a395 fa3b 1c1e bdbc 432b a53c
00000240: 9580 11bc bb0f a63c 9ce9 acbb 595a 4e3c
00000250: a86e ab3c eaa7 24bc e403 e8bb 14e2 3d3c
00000260: e316 b4bc 1e55 583c bb5e 87bc a87d ae3c
00000270: ee24 8ebc 0d30 3bbc 5b36 893c 4863 43bc
00000280: 113c a03c 2082 7d3c 69b9 ab3c 1d60 cbbc
00000290: 1a50 7dba 0366 17bc f266 943b 5c32 a1bc
000002a0: abcb 0c3c c330 d1ba 5e96 43bc 5632 b7bc
000002b0: eb3e 493c 0e4e 18bc 6942 8f3c 58dc 7d3b
000002c0: cf5a e43b 53c6 86bb 2cd9 77bb 1569 0ebc
000002d0: b412 b0bc 9525 743c 5346 81bc 6dbf 603c
000002e0: fedd 0dbc 7e75 723c 1ff7 a63c bb07 7bbc
000002f0: 11fd a03c f97b 1a39 e6b6 9bbc f22a 1b3c
00000300: f1e4 5a3c 8531 ac3c 98d8 c0bc 131e b03c
00000310: 7a32 933c 7767 c03c 9cfe 513c 6cf0 48bc
00000320: c089 933c 81ce b23c 65a2 1fbc 5384 90bb
00000330: 7e78 983c 9f8c 9c3c 9f2b 803c b150 953c
00000340: fb04 55bc 2057 99bb e725 27bc b24b 473c
00000350: 1d4d b83b f5d7 9dbc 13fe 65bb 6c7c a6bc
00000360: 4b44 bfbc 3dc6 b13c 19e6 4fbc da7d 2a3c
00000370: b98b bfbb 53fe b1bb 2d1f 11ba 8a44 973c
00000380: 88df 7cbb cb0f a13c d7a3 603c 9b82 843c
00000390: b9a5 b8bc 556f 42bc 9a49 a6bc c85c b9bb
000003a0: 2e85 b4bb 1a33 943b 679b ae3c c983 2a3c
000003b0: 5ee4 8ebc cdf9 80bc 098f 923c f84b fc3a
000003c0: df93 d03b 24a2 58bc d97c 61bb 4c9e d23b
000003d0: a5cc 86bc 416c 7c3c 4226 3f3c 7d85 70bc
000003e0: 4de3 2abc b53f ccbb 511a 593b 5304 1abc
000003f0: bd63 ba3c 6f29 c4bc 8cd5 69bc 0b28 7abc
-0.020773044 0.014143707 -3.8381026e-05 0.022788355 0.0036875366 -0.023916181 0.0047360305 0.020940226
0.013753889 0.005991527 -0.019567935 -0.0158508 0.015277552 -0.017468791 0.004325044 -0.004346493
0.006894375 0.00032395142 -0.019801274 -0.010970622 0.01997256 0.00163836 0.011064379 -0.013556532
0.017952453 -0.006487112 -0.009367227 0.003742594 -0.009915101 -0.0109706465 -0.0047095334 -0.0025520194
-0.0150287105 0.0071349614 -0.024781754 0.013724925 0.021311149 0.0026517226 -0.0070104836 -0.023435455
0.010301562 0.018777573 0.01962224 0.0009857772 0.0069855703 0.022202235 0.002514808 -0.012874031
-0.024249405 0.009476016 0.008251844 0.020330586 -0.013514666 0.009373007 -0.009105723 -0.0071353465
0.013057901 -0.02335612 0.016931085 0.010278755 -0.015530362 0.01132425 -0.0072187907 0.0010515098
-0.0077456967 -0.02492999 -0.0035879859 0.010818716 -0.003907398 -0.013099328 -0.0002899408 0.0034709822
-0.0077858153 -0.019962002 -0.014159421 -0.00504768 0.007658846 0.020448847 -0.0006353088 0.0076214764
0.0129201105 -0.011691896 -0.009202873 0.015064564 0.016462775 0.0047526327 -0.019884167 0.012709409
-0.02120588 0.011056493 0.0017560343 0.006796656 -0.024788942 -0.00959832 0.009278659 0.017630495
-0.008011509 0.020694643 -0.006369541 -0.015767157 -0.011685857 0.00039376313 -0.0054199058 0.01063289
-0.014545465 -0.007962435 -0.025102727 0.018851787 -0.0056540268 -0.020199412 -0.0021520196 -0.0010576717
0.0056942822 -0.0038337454 0.01416113 -0.009530981 -0.008451264 -0.006912987 0.0032659967 0.018480508
-0.0021543335 0.017617794 0.018050304 -0.013695319 -0.0031392355 -0.012593293 0.008976992 -0.009693936
0.0062749316 0.00025825365 -0.017176991 -0.017521102 -0.024854919 -0.0147062065 0.0056824917 0.00038175355
0.01719265 -0.022499168 -0.0018539436 -0.022969466 -0.0010218626 0.0076472326 -0.023085646 0.02016223
-0.008880754 0.020271173 -0.005276872 0.012594783 0.020926788 -0.010049799 -0.007080542 0.011589546
-0.02198357 0.013203887 -0.016524663 0.021300152 -0.017351594 -0.01142503 0.016749552 -0.011925526
0.019559892 0.015472919 0.020962434 -0.024826104 -0.000966312 -0.00924063 0.0045288736 -0.019677334
0.00859348 -0.0015959967 -0.011937706 -0.02236287 0.012283067 -0.009295953 0.017487722 0.0038736071
0.006968833 -0.0041129976 -0.0037818654 -0.008692046 -0.021493293 0.014901538 -0.015780604 0.013717514
-0.008658884 0.01479852 0.020381508 -0.015321667 0.019651921 0.00014732768 -0.019008111 0.009470688
0.013360248 0.021019707 -0.02354078 0.021498716 0.017968405 0.023486836 0.012817051 -0.012264352
0.01801002 0.021826984 -0.009743308 -0.0044103055 0.018612143 0.019110022 0.0156458 0.018226953
-0.013001676 -0.0046795756 -0.010201908 0.012164043 0.005624427 -0.019268015 -0.0035094067 -0.020323
-0.023347994 0.021700973 -0.012689137 0.010405982 -0.0058455137 -0.005431929 -0.00055359566 0.0184653
-0.0038585383 0.019660851 0.013710937 0.016175559 -0.02253996 -0.011867364 -0.020298768 -0.0056568123
-0.0055090403 0.0045226933 0.021314336 0.010407397 -0.017442878 -0.015744114 0.01789047 0.0019248715
0.006365284 -0.013222251 -0.003440669 0.006427562 -0.016455004 0.015406669 0.011666836 -0.014680264
-0.010430169 -0.0062331804 0.0033127258 -0.009400445 0.022752637 -0.023945538 -0.014272105 -0.015268336

classifier.1.bias f4 [3]
00000000: 9eed b93a a127 c8bb 37f2 60bc
0.0014185195 -0.0061082398 -0.0137296235
